…
model = Sequential()

model.add(LSTM(units=96, return_sequences=True, input_shape=(xtrain.shape[1], 1)))
model.add(Dropout(0.2))
model.add(LSTM(units=96,return_sequences=True))
model.add(Dropout(0.2))
model.add(LSTM(units=96,return_sequences=True))
model.add(Dropout(0.2))
model.add(LSTM(units=96))
model.add(Dropout(0.2))
model.add(Dense(units=1))

model.summary()
Model: "sequential_7"
_________________________________________________________________
 Layer (type)                Output Shape              Param #   
=================================================================
 lstm_28 (LSTM)              (None, 50, 96)            37632     
                                                                 
 dropout_28 (Dropout)        (None, 50, 96)            0         
                                                                 
 lstm_29 (LSTM)              (None, 50, 96)            74112     
                                                                 
 dropout_29 (Dropout)        (None, 50, 96)            0         
                                                                 
 lstm_30 (LSTM)              (None, 50, 96)            74112     
                                                                 
 dropout_30 (Dropout)        (None, 50, 96)            0         
                                                                 
 lstm_31 (LSTM)              (None, 96)                74112     
                                                                 
 dropout_31 (Dropout)        (None, 96)                0         
                                                                 
 dense_7 (Dense)             (None, 1)                 97        
                                                                 
=================================================================
Total params: 260,065
Trainable params: 260,065
Non-trainable params: 0
_________________________________________________________________
Qs = range(0, 2)
qs = range(0, 3)
Ps = range(0, 3)
ps = range(0, 3)
D=1
d=1
parameters = product(ps, qs, Ps, Qs)
parameters_list = list(parameters)
…
        model=sm.tsa.statespace.SARIMAX(gd['Price'], order=(param[0], d, param[1]),
                                        seasonal_order=(param[2], D, param[3], 12)).fit(disp=-1)
    except ValueError:
        print('wrong parameters:', param)
        continue
    aic = model.aic
    if aic < best_aic:
        best_model = model
        best_aic = aic
        best_param = param
    results.append([param, model.aic])


result_table = pd.DataFrame(results)
result_table.columns = ['parameters', 'aic']
print(result_table.sort_values(by = 'aic', ascending=True).head())
print(best_model.summary())
      parameters          aic
3   (0, 0, 1, 1)  4510.926018
5   (0, 0, 2, 1)  4512.408097
1   (0, 0, 0, 1)  4512.763531
9   (0, 1, 1, 1)  4512.849512
21  (1, 0, 1, 1)  4512.855567
                                      SARIMAX Results                                       
============================================================================================
Dep. Variable:                                Price   No. Observations:                  384
Model:             SARIMAX(0, 1, 0)x(1, 1, [1], 12)   Log Likelihood               -2252.463
Date:                              Tue, 26 Sep 2023   AIC                           4510.926
…
